.dart_tool/chrome-device/Default/optimization_guide_prediction_model_downloads/bf27eeb0-e08d-4fa8-9b1a-e6227e3fbd59/model.tflite (tflite, 67216 bytes, 5 tensors)

dnn/hiddenlayer_1/bias/part_0 f4 [64]
0	0x3cd593a6	0.02607138
1	0xbceaf858	-0.028682873
2	0xbc88174b	-0.01661267
3	0x3d91b368	0.07114297
4	0xbd056bb4	-0.032573417
5	0x3dca16b7	0.09867614
6	0x3d41ab9e	0.047282808
7	0x3baeb7f1	0.005331986
8	0x3ce85daa	0.028364975
9	0xbd5116a7	-0.051046994
10	0xbd98b77d	-0.074568726
11	0x3da455f1	0.080242045
12	0xbd7ae835	-0.061256606
13	0xbc9e8fd8	-0.0193557
14	0x3ddbc402	0.10730745
15	0xbd851ab6	-0.06499235
16	0xbaa46469	-0.0012542132
17	0x3d01475e	0.0315622
18	0xbcd6aa39	-0.026204215
19	0xbd49d3d8	-0.049274296
20	0xbc7da0e1	-0.015480251
21	0xbd04d2b0	-0.03242749
22	0xbdf72c65	-0.120690145
23	0x3dd53657	0.10410755
24	0xbd23b2d6	-0.039965473
25	0xbc57ba02	-0.013166906
26	0x3b368fa9	0.0027856624
27	0xbd93e34b	-0.07221087
28	0xbcb82695	-0.022479335
29	0x3cf51871	0.029918881
30	0xbd313986	-0.04326775
31	0xbd1b57a3	-0.037925374
32	0xbd22ee31	-0.03977794
33	0x3d2b678c	0.041846797
34	0x3ca96bff	0.02068138
35	0x3de94ada	0.1139123
36	0x3ddb266f	0.1070069
37	0x3b37124f	0.0027934497
38	0xbc187988	-0.009306319
39	0x3bc435ca	0.0059878575
40	0x3d0dfa15	0.034662325
41	0xbd8b016f	-0.06787383
42	0xbc41608e	-0.011802806
43	0xbd188333	-0.037234496
44	0x3d9c7912	0.0764028
45	0xbd3e7f97	-0.046508398
46	0x3da5d185	0.08096603
47	0xbcdce364	-0.026963897
48	0xbdca96ce	-0.09892045
49	0x3d58a91a	0.052895643
50	0x3c257fb9	0.010101252
51	0x3dd01f96	0.101622745
52	0xbd9b4c95	-0.07582966
53	0xbcbbcf1a	-0.022925902
54	0x3bfa11f1	0.0076315333
55	0xbcdab124	-0.026695795
56	0x3d54725c	0.051866874
57	0x3d940cf5	0.07229034
58	0xbd0fc35d	-0.035098422
59	0x3d613f5e	0.054992072
60	0xbcf0917d	-0.02936625
61	0x3d893ae4	0.067006856
62	0xbd1b9ac4	-0.037989393
63	0xbd3321d4	-0.043733433

dnn/hiddenlayer_0/bias/part_0 f4 [128]
0	0xbd9d8220	-0.07690835
1	0xbca3c6e1	-0.019992294
2	0x3d640e5b	0.055677753
3	0x3a1a62d8	0.00058893627
4	0x3d73a54c	0.05948381
5	0x3d38f37f	0.04515409
6	0x3d60d458	0.054890007
7	0x3c9227ef	0.017841307
8	0x3d93ed54	0.07223001
9	0x3ae5f5ad	0.001754453
10	0xbd1eda03	-0.03878213
11	0xbdb39a88	-0.08769709
12	0x3d3b1ee7	0.045683768
13	0x3c99b460	0.018762767
14	0xbd4174cf	-0.047230538
15	0xbdf95a4e	-0.121754274
16	0xbda00b97	-0.078147106
17	0xbdb1712c	-0.08664164
18	0x3cef93dd	0.029245311
19	0x3e2438fe	0.16037366
20	0x3d805e74	0.062680155
21	0x3d0273dc	0.031848773
22	0xbdbc4c35	-0.09194223
23	0x3d50e54d	0.05099993
24	0xbc9a939a	-0.01886921
25	0x3dafe5e1	0.08588768
26	0x3c90328d	0.01760223
27	0xbd4bddfe	-0.049772255
28	0x3d883ab4	0.06651822
29	0x3d466279	0.048433755
30	0x3c02124c	0.007938933
31	0x3d205578	0.03914401
32	0xbb933bb1	-0.0044931998
33	0x3d6c3a33	0.05767269
34	0x3d50be3a	0.050962664
35	0x3d143536	0.03618356
36	0xbd86bb81	-0.06578732
37	0x3d7ae84c	0.06125669
38	0xbc9a538c	-0.018838666
39	0xbda31b0d	-0.07964144
40	0xbc8e424a	-0.017365593
41	0xbd4e574b	-0.050376218
42	0xbd2cbc04	-0.042171493
43	0xbd4a683e	-0.04941582
44	0xbcaf8375	-0.021424988
45	0x3d94b1dc	0.072604865
46	0x3be70f05	0.007051351
47	0x3de83897	0.11338919
48	0x3d044ab4	0.032297805
49	0x3d2cb049	0.042160306
50	0xbd892595	-0.06696621
51	0x3c5101b7	0.0127567565
52	0x3cadbcf9	0.021208273
53	0x3bf10284	0.007355036
54	0xbc81dcca	-0.01585235
55	0x3ac4179f	0.0014960653
56	0x3ca6ac09	0.020345705
57	0xb9d72d08	-0.00041041547
58	0x3dd8c6cf	0.10584795
59	0x3d640760	0.055671096
60	0xbbd567d1	-0.00651262
61	0x3c8bea0a	0.017079372
62	0xbd73ef6e	-0.05955451
63	0xbb6aa311	-0.0035802762
64	0xbd23541c	-0.039875135
65	0xbd13e8cc	-0.036110684
66	0xbda25780	-0.079268456
67	0xbd014c09	-0.031566653
68	0xbccce827	-0.025013043
69	0x3da4a893	0.080399655
70	0xbc9c58b9	-0.019085275
71	0x3daf3ae3	0.085561536
72	0x3d69492b	0.056954544
73	0x3aa139a6	0.0012300506
74	0xbc57bdf5	-0.013167848
75	0x3ba62e27	0.0050714198
76	0xbbe9e0b4	-0.0071373824
77	0x3de3ce73	0.111233614
78	0xbe1dbd5c	-0.15404266
79	0xbca67e5c	-0.020323925
80	0xbd28bd9b	-0.041196447
81	0xbc23a907	-0.00998903
82	0xbe18ccd3	-0.14921884
83	0x3ce2f1d1	0.027703198
84	0xbde17d25	-0.110101976
85	0x3d72d36e	0.059283666
86	0xbdcb819a	-0.09936829
87	0xbdb6de76	-0.0892915
88	0xbc0d5028	-0.008625068
89	0x3d8a2406	0.06745152
90	0x3d83cf45	0.06436018
91	0x3bb3bfae	0.0054854965
92	0xbd17d52f	-0.037068542
93	0xbc264114	-0.010147352
94	0x3d217376	0.039416753
95	0xbd4c8dd7	-0.049939957
96	0xbdc9a003	-0.09844973
97	0xbd087451	-0.033314053
98	0xbced251b	-0.028948357
99	0x3dddfb7c	0.108389825
100	0x3d4a6d81	0.049420837
101	0x3d53043b	0.051517706
102	0xbc3c5862	-0.0114956815
103	0xbda7fa07	-0.08201986
104	0x3c2020e2	0.009773465
105	0xbbd67a25	-0.0065453225
106	0xbd62f5ce	-0.0554102
107	0xbc9fb199	-0.019493865
108	0x3c9e2eb3	0.019309377
109	0x3d5bca26	0.05365958
110	0xbc813891	-0.015774043
111	0xbda85d9b	-0.08220979
112	0xbc90c7af	-0.017673342
113	0x3d876090	0.06610215
114	0xbd0c2879	-0.034218285
115	0xbca9a333	-0.020707702
116	0x3de0eb65	0.10982398
117	0xbc27b795	-0.01023664
118	0x3ca27e8b	0.019835731
119	0x3c0559d8	0.008139096
120	0xbbd341e5	-0.006447064
121	0x3d4bb65e	0.049734466
122	0x3d7948f2	0.06086058
123	0x3c418c3e	0.0118132215
124	0xbd1dcb8f	-0.038524207
125	0x3dbedcb8	0.093194425
126	0x3d308b60	0.04310167
127	0xbcbc0119	-0.022949742

dnn/hiddenlayer_0/MatMul f4 [128, 12]
0	0xbcc3493f	-0.023838637
1	0x3e2b84b4	0.16749841
2	0xbeaab79a	-0.33343202
3	0xbce39c32	-0.02778444
4	0x3ccfb23a	0.02535354
5	0xbe19b48c	-0.1501028
6	0x3e11f7c9	0.14254679
7	0x3dce87b1	0.10084475
8	0xbcb5f176	-0.022209864
9	0x3dd4fa7f	0.10399341
10	0xbceeec1c	-0.02916532
11	0xbdb50a7a	-0.08839889
12	0xbd08f7ff	-0.033439633
13	0x3de4be32	0.111690894
14	0x3d6dd044	0.058059946
15	0x3e2b5b23	0.16733985
16	0x3e05e07a	0.13073912
17	0xbe27ca60	-0.16385794
18	0x3a7e66f2	0.0009704671
19	0xbdca3def	-0.09875094
20	0x3e3c16ec	0.18368119
21	0xbe2905b3	-0.1650608
22	0xbd07a400	-0.033115387
23	0xbcb0233d	-0.021501178
24	0x3dc109c9	0.094256945
25	0x3e3d4322	0.1848264
26	0x3e623d08	0.22093594
27	0xbe3e013a	-0.18555155
28	0x3dc1fbce	0.09471856
29	0x39d24011	0.00040102054
30	0xbd7739cf	-0.060357865
31	0x3e03e422	0.12879995
32	0xbe38ce76	-0.18047509
33	0xbdffc295	-0.124882855
34	0x3e1c4cc0	0.15263653
35	0x3dd9162f	0.10599934
36	0xbe44a973	-0.19205265
37	0xbe0814e2	-0.13289216
38	0x3db07141	0.086153515
39	0x3e27e3a6	0.16395435
40	0x3e264636	0.16237721
41	0xbdebb6e3	-0.11509492
42	0x3cf7ac0f	0.030233411
43	0xbe3029c8	-0.17203438
44	0x3d50a4e0	0.050938487
45	0x3e1cbe64	0.15307003
46	0xbe80e761	-0.25176528
47	0x3e58128b	0.21100824
48	0x3d44b06e	0.04801982
49	0xbbde1a39	-0.0067780283
50	0x3e4fb598	0.20284116
51	0xbdd4ac98	-0.10384482
52	0x3e256710	0.16152596
53	0x3d0df6e2	0.034659274
54	0x3e18c94d	0.1492054
55	0xbd909473	-0.070595644
56	0xbcb2144f	-0.0217382
57	0x3d8e5778	0.06950277
58	0x3b1dbfac	0.0024070544
59	0xbb03b107	-0.002009453
60	0xbcdc9778	-0.026927695
61	0xbddd81c0	-0.108157635
62	0xbdd959d1	-0.10612834
63	0xbdb3c533	-0.08777847
64	0x3d98d261	0.074620016
65	0xbde46238	-0.11151546
66	0xbe84a79f	-0.25909135
67	0x3df255db	0.11832782
68	0x3d80b522	0.06284548
69	0xbdcf30cc	-0.10116729
70	0x3e1aadd6	0.15105376
71	0x3d2e2fe0	0.042526126
72	0xbbc98488	-0.006149832
73	0x3d92bd45	0.071650065
74	0xba87ddd5	-0.0010365794
75	0x3e5fd383	0.21858029
76	0x3d8cc8ed	0.06874261
77	0xbe551b78	-0.2081126
78	0xbe38677b	-0.18008225
79	0xbdd8f821	-0.10594202
80	0x3e01e295	0.1268409
81	0xbdb137f8	-0.08653253
82	0x3e6134e1	0.21992828
83	0xbe08c523	-0.13356452
84	0xbe5f58b7	-0.21811186
85	0xbd683489	-0.056690726
86	0x3dd894f3	0.10575285
87	0x3dbf319f	0.09335636
88	0x3e130297	0.14356457
89	0x3c5c5af7	0.013449422
90	0xbd72da00	-0.059289932
91	0xbd86b485	-0.065774
92	0xbe63c2e3	-0.22242312
93	0x3e067392	0.13130024
94	0xbe192f20	-0.14959383
95	0xbe185dd4	-0.14879543
96	0xbd3ae1e2	-0.045625575
97	0xbd296103	-0.041352283
98	0x3e0d0372	0.13770846
99	0xbe0c79ce	-0.1371834
100	0xbdb17c86	-0.08666329
101	0xbe3d9445	-0.18513592
102	0x3e144f93	0.1448348
103	0xbe423322	-0.18964818
104	0x3e04322b	0.12909763
105	0x3e35d6ea	0.17757764
106	0xbd0f821a	-0.035036184
107	0x3e080f7a	0.13287154
108	0xbd59aeac	-0.053145096
109	0xbd50a44e	-0.050937943
110	0x3b9ebe54	0.004844466
111	0xbe4312d1	-0.19050147
112	0x3d8427c6	0.06452899
113	0xbd58addc	-0.05290018
114	0x3d918b5a	0.07106657
115	0xbde0f008	-0.10983282
116	0xbe5a5998	-0.2132324
117	0x3c3636e5	0.011121486
118	0xbe0bda1a	-0.13657418
119	0xbdc6e3fd	-0.09711454
120	0xbb08b99e	-0.002086259
121	0xbc9b7111	-0.018974813
122	0xbe555c1d	-0.2083592
123	0x3aa211f8	0.0012364974
124	0x3d164253	0.036684345
125	0xbcde78ab	-0.027157148
126	0x3e1ea769	0.1549355
127	0xbdf0b378	-0.11752981
128	0xbea1a2df	-0.31569573
129	0xbcc31a1b	-0.023816159
130	0xbda2ef74	-0.07955828
131	0x3d5e3fe3	0.054260146
132	0xbe2cd757	-0.1687902
133	0xbd56b1fd	-0.052415837
134	0xbde12354	-0.109930664
135	0x3d1716a2	0.03688682
136	0x3e2e8bbb	0.1704549
137	0x3e46e649	0.19423784
138	0xbe829a13	-0.25508174
139	0xbd637235	-0.05552884
140	0x3de38675	0.1110963
141	0x3c9da92e	0.01924571
142	0xbe53655b	-0.20644133
143	0x3e3716ff	0.17879866
144	0x3e2e5610	0.17025018
145	0x3d2ed8b8	0.042687148
146	0x3b92fdea	0.0044858353
147	0x3c75e1f0	0.015007481
148	0xbe2abb89	-0.16673101
149	0xbd0871f8	-0.033311814
150	0xbe1fa8f2	-0.15591791
151	0xbe32b8a6	-0.1745325
152	0x3d72134c	0.059100434
153	0x3e3a26af	0.18178819
154	0x3e00fb01	0.1259575
155	0xbe1616f8	-0.146572
156	0xbd8a11cb	-0.06741675
157	0x3e40fe88	0.18847096
158	0xbd30ba80	-0.04314661
159	0x3e469a94	0.19394904
160	0x3dce6a4a	0.10078867
161	0x3dd7fe42	0.10546543
162	0x3e2e85b9	0.17043199
163	0xbe0b80f4	-0.1362341
164	0x3d98cf6b	0.07461437
165	0x3dbe6812	0.092971936
166	0x3e74e97c	0.23917192
167	0x3e618319	0.22022666
168	0x3e074db5	0.13213237
169	0x3e36197d	0.1778316
170	0xbe2f9fd8	-0.1715082
171	0xbdad99d6	-0.084766075
172	0x3e37d845	0.17953594
173	0x3dc8fc49	0.098137446
174	0x3d858428	0.065193474
175	0xbe399a3f	-0.18125246
176	0xbcbe2f23	-0.023215836
177	0x3e3c6f86	0.18401918
178	0x3d89c291	0.06726564
179	0x3d3745a6	0.044744156
180	0x3e3d9990	0.1851561
181	0x3dc32af4	0.09529677
182	0x3ca076ab	0.019587835
183	0x3e002ab4	0.1251629
184	0x3e4616fd	0.19344707
185	0x3e2cf45d	0.16890092
186	0xbe82d5a6	-0.25553626
187	0x3e32821b	0.17432444
188	0x3c237cea	0.009978512
189	0x3e3bb25e	0.1832976
190	0xbded5787	-0.1158896
191	0xbe19f0e8	-0.15033305
192	0x3e0133f3	0.12617473
193	0x3df73644	0.12070897
194	0x3d90d1a6	0.07071237
195	0xbcc79c37	-0.024366481
196	0xbe5c113f	-0.21490954
197	0x3c5cb0b8	0.013469867
198	0xbe644f8e	-0.22295973
199	0x3e006219	0.12537421
200	0xbda37008	-0.07980353
201	0x3e3579cb	0.17722242
202	0xbe265530	-0.16243434
203	0xbdb3f98a	-0.0878783
204	0x3e0a2731	0.13491513
205	0x3e41bc44	0.18919474
206	0xbde2fe47	-0.11083656
207	0x3c825db5	0.015913824
208	0xbdfc867b	-0.123303376
209	0x3e1f658b	0.1556608
210	0xbe5bca0d	-0.21463795
211	0xbe053c54	-0.13011295
212	0xbd89a2bf	-0.067204945
213	0x3d987b02	0.07445337
214	0xbded87f5	-0.11598197
215	0xbe51f722	-0.2050443
216	0xbe4975c7	-0.19673835
217	0xbdbe3aec	-0.09288582
218	0xbe227909	-0.15866484
219	0x3cc8ef67	0.024528218
220	0xbcfed688	-0.031108156
221	0x3e53ef83	0.20696835
222	0xbd3b0332	-0.045657344
223	0xbcd3b6b6	-0.02584396
224	0x3e3cd08c	0.1843893
225	0x3d62d876	0.055382214
226	0xbbc066d8	-0.005871635
227	0x3e4efd60	0.20213842
228	0x3e57604b	0.21032827
229	0xbe0b9f01	-0.13634874
230	0xbe422c35	-0.18962176
231	0xbc664f37	-0.014056972
232	0x3df783a3	0.120856546
233	0xbc9ba095	-0.01899747
234	0x3e657b78	0.22410381
235	0x3b873b71	0.004126959
236	0xbd6b5702	-0.057456024
237	0xbd2d7ae5	-0.04235353
238	0x3e6ba448	0.23011887
239	0x3e364db8	0.17803085
240	0x3e326ffb	0.1742553
241	0xbe01cf88	-0.12676823
242	0x3e5f30f1	0.21796013
243	0xbe61fb0a	-0.2206842
244	0x3e103c39	0.14085473
245	0xbd84eaf0	-0.06490123
246	0x3e4fa7bc	0.2027883
247	0x3dcea1a8	0.10089427
248	0x3e125964	0.14291912
249	0xbde4234b	-0.11139544
250	0x3e29f7d3	0.16598444
251	0x3e23cef8	0.15996921
252	0x3d66c1a3	0.05633701
253	0x3d638a91	0.05555207
254	0x3d31db63	0.043422114
255	0x3d8dfe5a	0.06933279

dnn/hiddenlayer_1/MatMul f4 [64, 128]
0	0xbe07613c	-0.13220686
1	0xbdd86a73	-0.105671786
2	0xbd020d93	-0.031751227
3	0xbdda2c1b	-0.10652944
4	0xbe1a91b7	-0.15094648
5	0xbdbe6ea3	-0.09298446
6	0xbe0d4cf0	-0.1379888
7	0xbdc32d07	-0.09530073
8	0x3d936f44	0.071989566
9	0xbe227a9a	-0.15867081
10	0xbdff4d1c	-0.12465879
11	0xbe161606	-0.14656839
12	0xbe1dd98b	-0.15415017
13	0x3e186073	0.14880542
14	0x3e3d1d80	0.18468285
15	0xbda61e0f	-0.08111202
16	0xbd0731c2	-0.033006437
17	0x3d6dabc6	0.058025144
18	0x3ddb36bd	0.107038
19	0xbbe17991	-0.006880947
20	0xbe2396bc	-0.1597547
21	0x3d8017c1	0.06254531
22	0xbd84aab8	-0.064778745
23	0xbddbed85	-0.10738663
24	0x398bdb34	0.00026675465
25	0x3db06a8b	0.086140715
26	0x3e08450e	0.13307592
27	0x3e1f55e6	0.15560111
28	0xbcaf1102	-0.021370415
29	0x3dbb9dba	0.09160943
30	0xbd02945d	-0.03187977
31	0xbc0c7352	-0.008572416
32	0x3d809e41	0.062801845
33	0x3d905400	0.07047272
34	0xbe2b8a7c	-0.16752046
35	0xbe3cf60e	-0.18453237
36	0x3e0e7f14	0.13915664
37	0x3d8bb031	0.06820715
38	0x3db6b0cf	0.08920442
39	0xbdc54a3b	-0.09633299
40	0xbcf24a50	-0.02957645
41	0xbe3b664f	-0.18300746
42	0x3e4512d3	0.19245462
43	0xbc0e3b61	-0.008681149
44	0xbbb063c9	-0.005382989
45	0xbe24ffc7	-0.16113196
46	0x3dda0599	0.10645599
47	0x3e026eae	0.12737533
48	0xbd30d179	-0.04316852
49	0x3c829698	0.01594095
50	0x3dae173f	0.085005276
51	0x3a993dce	0.0011691393
52	0x3de9ccd1	0.11416019
53	0xbd7a2189	-0.061067138
54	0x3daace4a	0.08340128
55	0xbe048505	-0.12941368
56	0xbd40e0f5	-0.047089536
57	0x3da9aab6	0.08284514
58	0xbe093342	-0.1339846
59	0x3d43ea6a	0.047830977
60	0xbc40de2a	-0.011771718
61	0x3d12fccf	0.03588563
62	0xbe2894e7	-0.16463052
63	0xbe32e023	-0.17468314
64	0x3d9ae5bc	0.075633496
65	0x3e284eff	0.16436385
66	0xbd4cbcb2	-0.04998464
67	0xbd4b4557	-0.049626675
68	0x3de137cd	0.10996971
69	0x3e1e6ce0	0.1547122
70	0x3cc77810	0.024349242
71	0xbde125e0	-0.10993552
72	0xba7a26e0	-0.0009542536
73	0x3e1b408f	0.15161346
74	0x3e0c1b98	0.13682401
75	0x3cfd43d4	0.030916132
76	0x3e0cd977	0.13754831
77	0xbe0232eb	-0.12714736
78	0x3da23219	0.079197116
79	0xbdb036e7	-0.08604222
80	0x3d702e40	0.058637857
81	0x3d9bbca1	0.076043375
82	0xbcc80b0d	-0.024419332
83	0x3cf112a2	0.02942783
84	0x3e084085	0.13305862
85	0x3c147443	0.009060922
86	0xbc8f05df	-0.017458854
87	0x3df55eee	0.11980997
88	0x3c42e135	0.011894514
89	0xbdcb80c2	-0.09936668
90	0xbd05ea9b	-0.03269444
91	0xbd067bf9	-0.032833073
92	0x3dc2a000	0.09503174
93	0x3cfac535	0.030611614
94	0xbde6698f	-0.112506025
95	0x3dc95b96	0.09831922
96	0xbdf1c538	-0.118051946
97	0xbc9d289e	-0.019184407
98	0xbd5c9217	-0.05385026
99	0x3e40ebb3	0.18839912
100	0xbcd7e341	-0.02635348
101	0xbd5de1c5	-0.05417039
102	0xbdeb75c4	-0.114970714
103	0xbe01c2d0	-0.12671971
104	0xbdb21f14	-0.08697334
105	0xbd2d037e	-0.04223966
106	0xbe0fc166	-0.1403862
107	0xbdb3c75d	-0.0877826
108	0x3e254ac0	0.16141796
109	0xbdeca7f4	-0.11555472
110	0x3ceda755	0.029010454
111	0x3bc73af0	0.006080024
112	0x3df7c92f	0.120989196
113	0xbe25eb77	-0.16203104
114	0xbe1bc2bf	-0.15211008
115	0x3df04ba0	0.11733174
116	0xbe118fd0	-0.14215016
117	0x3d94cbaa	0.07265408
118	0xbc001e11	-0.007819668
119	0x3e1396c1	0.14412977
120	0xbbac4458	-0.0052571706
121	0xbe092a19	-0.13394965
122	0xbd93a6a3	-0.07209518
123	0xbde2aefe	-0.11068533
124	0x3e083146	0.13300046
125	0x3e2da26d	0.16956492
126	0xbd9a52ba	-0.0753531
127	0xbdb94d5b	-0.090479575
128	0x3d21fd18	0.03954801
129	0xbc73cc65	-0.014880274
130	0x3ded1d76	0.11577885
131	0x3dfc927b	0.123326264
132	0xbe2bd08d	-0.16778775
133	0xbdc56136	-0.09637682
134	0xbd920edc	-0.071317405
135	0x3da3b9a4	0.079943925
136	0xbd5e5b33	-0.054286193
137	0x3db26284	0.087101966
138	0x3d4ef26b	0.050524157
139	0x3d8ffe60	0.0703094
140	0x3d635095	0.05549677
141	0x3dfefc83	0.124505065
142	0x3d24b322	0.040209897
143	0xbe640e2e	-0.22271034
144	0x3d1fbf58	0.03900084
145	0x3bd45436	0.0064797653
146	0xbc91900a	-0.017768878
147	0xbe495eaa	-0.19665018
148	0xbd8bb95a	-0.068224624
149	0x3e5a565a	0.21322003
150	0x3be55ac2	0.0069993446
151	0xbe125f46	-0.14294156
152	0x3e016dcd	0.12639542
153	0xbe14d079	-0.14532651
154	0x3e2d9b14	0.16953689
155	0xbdaf7d08	-0.0856877
156	0xbe06ebd8	-0.13175905
157	0xbd31a9e8	-0.043374926
158	0xbe378143	-0.17920403
159	0xbda23535	-0.07920305
160	0xbda9c598	-0.08289641
161	0xbde6b08c	-0.112641424
162	0x3da98736	0.082777426
163	0xbdfeb184	-0.12436202
164	0xbbfc1aa0	-0.0076936036
165	0x3da86d71	0.08223999
166	0xbdc79057	-0.097443275
167	0xbd04cf03	-0.032423984
168	0x3dfc5807	0.123214774
169	0x3e182ca8	0.14860785
170	0x3e45b9c3	0.19309144
171	0xbe13e6f1	-0.14443566
172	0xbdcce177	-0.100039415
173	0xbd88ccb1	-0.06679667
174	0x3d453dd5	0.04815467
175	0xbde64d3d	-0.11245201
176	0xbdac7f9d	-0.08422778
177	0xbe431deb	-0.19054382
178	0x3cffceb3	0.031226492
179	0x3d205dd9	0.039152
180	0xbc9b099d	-0.018925482
181	0x3e41ead1	0.18937232
182	0x3d5855c9	0.052816186
183	0x3e2bf09d	0.16791005
184	0xbe2f3dfa	-0.17113486
185	0x3df37601	0.11887742
186	0xbd3648a7	-0.04450288
187	0x3d8d7516	0.06907098
188	0xbc88013f	-0.016602157
189	0x3df59277	0.119908266
190	0xbdda30e3	-0.10653856
191	0x3e5652a6	0.20929965
192	0x3e0499fe	0.12949368
193	0x3e18c9f0	0.14920783
194	0xbe0c012d	-0.13672324
195	0x3e263c30	0.16233897
196	0x3dc5da9f	0.09660839
197	0xbe02e78b	-0.12783639
198	0xbe1a68a4	-0.1507898
199	0xbe18844b	-0.14894216
200	0xbc819d57	-0.015822096
201	0x3e16194b	0.14658086
202	0x3d180713	0.03711612
203	0x3d916c39	0.0710072
204	0xbda9408c	-0.082642645
205	0x3d1e4dd9	0.03864846
206	0xbe5365ca	-0.20644298
207	0x3dc145db	0.09437152
208	0xbda180c7	-0.078858905
209	0xbda0c5a4	-0.07850197
210	0x3e2b57c8	0.16732705
211	0x3c29f0a4	0.010372315
212	0x3cc6b6a5	0.024257014
213	0x3dddaabe	0.10823582
214	0x3e0912a6	0.1338602
215	0x3db4756a	0.088114575
216	0x3e179852	0.148042
217	0xbd8af160	-0.0678432
218	0xbdbc2e41	-0.0918851
219	0x3e18fe02	0.14940646
220	0x3c8a5538	0.016886339
221	0x3e1607d8	0.1465143
222	0x3ca8df27	0.02061422
223	0xbe035e61	-0.12828971
224	0x3ddc772e	0.10764919
225	0x3e2aaa6b	0.16666572
226	0x3e149401	0.14509584
227	0xbbf9cf20	-0.007623568
228	0xbd285e4e	-0.04110556
229	0xbc665765	-0.014058922
230	0x3e33182e	0.17489693
231	0xbdc8a0e7	-0.09796315
232	0x3dc3fe8e	0.09570037
233	0xbcc44415	-0.023958245
234	0x3e882b5b	0.26595578
235	0x3e0b77d4	0.1361993
236	0xbdd8d1e2	-0.10586907
237	0xbd7a9967	-0.061181452
238	0xbdaf9c82	-0.08574773
239	0xbdb3a3c0	-0.08771467
240	0x3e1f3ef9	0.15551366
241	0xbe0ff08d	-0.14056607
242	0x3d6be220	0.057588696
243	0xbe28c03d	-0.16479583
244	0xbe45d189	-0.19318213
245	0xbe25a573	-0.16176395
246	0x3caae206	0.02085973
247	0xbd4fa817	-0.050697412
248	0xbd194420	-0.037418485
249	0xbe1dc781	-0.15408136
250	0xbdeb744b	-0.114967905
251	0x3d490c4a	0.049083985
252	0x3e3748f5	0.17898925
253	0x3d15ad1b	0.03654204
254	0x3e3283fb	0.17433159
255	0xbe071ffc	-0.13195795

dnn/logits/MatMul f4 [1, 64]
0	0x3dba1729	0.09086449
1	0xbeb0aa20	-0.34504795
2	0xbe6bc821	-0.23025562
3	0x3e2a2de3	0.16619067
4	0xbcafd13a	-0.021462072
5	0x3e86b10f	0.2630696
6	0x3ea19d05	0.3156511
7	0x3d67a4e2	0.05655373
8	0x3e8279f2	0.25483662
9	0xbe1439fb	-0.14475243
10	0xbea7408e	-0.3266644
11	0x3e2a2db0	0.16618991
12	0xbeb6d359	-0.3570812
13	0xbd1dc456	-0.03851732
14	0x3ebf165d	0.3732175
15	0xbe0bce34	-0.13652879
16	0x3be4bd23	0.0069805547
17	0x3e94c416	0.29055852
18	0xbd39d054	-0.045364693
19	0xbe90aacf	-0.28255317
20	0x3da4a86f	0.08039939
21	0xbe1dfdcc	-0.15428847
22	0x3e8dee19	0.27720717
23	0x3eadcf8a	0.33947402
24	0xbdbe57b9	-0.092940755
25	0xbe92574a	-0.2858222
26	0x3e92f5e5	0.28703228
27	0xbe78b1d4	-0.24286586
28	0xbe8e5632	-0.27800137
29	0x3e16cf8d	0.14727612
30	0xbe5e7117	-0.21722828
31	0xbdf59e5e	-0.11993097
32	0xbddf2384	-0.10895446
33	0x3e289bcf	0.16465686
34	0x3e8a369a	0.26994783
35	0x3ed12765	0.40850368
36	0x3ecd42c0	0.4008999
37	0x3e090935	0.13382418
38	0x3ea93b1e	0.33052915
39	0x3e88e47a	0.26736814
40	0x3e78c27d	0.24292941
41	0xbe09a01c	-0.13439983
42	0xbe96a285	-0.29420868
43	0x3d39d776	0.045371495
44	0x3e8a18e9	0.2697213
45	0xbdd6e5c8	-0.10493046
46	0x3e529f44	0.20568568
47	0xbe7c3c52	-0.24632385
48	0xbe840563	-0.2578536
49	0x3e108edd	0.14116998
50	0xbe6eddfc	-0.23326868
51	0x3ebad1ad	0.36488095
52	0xbeb74924	-0.3579799
53	0xbe3d7dad	-0.18504973
54	0xbe4ac0a2	-0.19800046
55	0xbe915481	-0.28384784
56	0x3e549484	0.20759779
57	0x3dfcee04	0.123500854
58	0xbdeff4e1	-0.11716629
59	0x3e109031	0.14117505
60	0xbe3ccb49	-0.18436922
61	0x3dcfa3be	0.10138653
62	0xbbc39898	-0.0059691183
63	0xbe5927fe	-0.21206662
